public/digit_net.onnx (onnx, 12675 bytes, 3 tensors)

conv1.bias f4 [32]
000000 0b aa 11 be a7 aa 97 be a5 af 45 bd 52 e3 58 be
       -0.14225022 -0.29622385 -0.04826321 -0.21180466
000010 b3 bc 4f be e0 a2 1e be b7 f1 13 be 5d ca 3f 3e
       -0.20286827 -0.1549182 -0.14447676 0.18729539
000020 aa 16 e9 bc e6 16 b0 bb 32 35 45 bd 6a fd 9c 3d
       -0.02845319 -0.0053738235 -0.048146434 0.076655224
000030 3d 95 82 be 5d 9e c3 bd ba d1 c6 bd a6 52 4c bd
       -0.25504485 -0.0955169 -0.09707971 -0.049883507
000040 3f 76 d3 3d 44 2b 06 be 20 0a 4a be a3 02 63 3d
       0.10325288 -0.13102442 -0.19730425 0.055422436
000050 71 cf aa 3d c5 b3 1f be 20 46 5e 3d ce 79 bd be
       0.083403476 -0.1559592 0.054266095 -0.37006992
000060 8e a0 a3 3c ac 93 c3 be e8 cb 4c 3d 1c 12 8f 3e
       0.01997402 -0.38198602 0.049999148 0.27943504
000070 d1 7c 51 be c7 d8 8d be 38 9e ca 3d 53 1a a5 bd
       -0.2045777 -0.2770445 0.09893459 -0.080616616

conv2.bias f4 [64]
000000 54 e3 8b 3b fe 50 b0 bc d9 b3 3c 3d fe cd 89 bd
       0.004269043 -0.021522995 0.046069954 -0.06728743
000010 0a be 31 bd b1 6f de bd 2b be 92 bb 17 28 ad bd
       -0.043394126 -0.10861147 -0.004478236 -0.08454912
000020 b4 e8 71 bc 54 8e 55 bd d2 fd 7f bd ad 55 c1 bd
       -0.014764953 -0.052137688 -0.06249792 -0.094401695
000030 1c 72 20 bd 5f a5 68 bd 97 74 11 3d d3 7c 85 bd
       -0.039171323 -0.056798335 0.03551158 -0.06517949
000040 ae 35 06 3c 30 42 8c bd 39 1f a3 bd 89 90 82 bd
       0.008191509 -0.06848562 -0.079649396 -0.06375224
000050 03 3f 29 bb b9 c5 b2 bd 06 95 d9 bd cf 33 40 bd
       -0.0025824911 -0.08729119 -0.10624127 -0.04692441
000060 8c bf b8 bd 5f a8 b7 bd 47 e9 31 bd db c2 87 bd
       -0.0902091 -0.08967661 -0.04343536 -0.066289626
000070 01 62 f6 bd 6d 1b 92 bd 22 c0 36 bd 5d d3 f5 bb
       -0.120304115 -0.07134137 -0.044616826 -0.007502003
000080 64 44 a4 bc b0 38 d6 bd de b9 99 3c e2 ae a1 bd
       -0.020052142 -0.10460031 0.018765386 -0.078946844
000090 34 03 1b bd 62 62 db bd fd 63 02 3c 90 9a 8e bd
       -0.03784485 -0.107121244 0.007958409 -0.06963074
0000a0 5d 0e b3 bd 1e 31 a5 bd f4 f0 00 bb 3b e5 82 bb
       -0.08742974 -0.08066009 -0.001967487 -0.0039946116
0000b0 4e 9a 0e bc d0 c2 c2 bc 83 e1 4a bc 4f 3e 7f 3c
       -0.008703781 -0.023774534 -0.012382868 0.01557882
0000c0 f1 0a 43 3c 1a 46 05 3c 5d ae a9 bc ae 82 97 bc
       0.011904464 0.008134389 -0.020713026 -0.01849493
0000d0 29 d2 bb bc ea e5 ea bd 30 1c fb 3a 1a 11 33 bd
       -0.02292736 -0.11469634 0.0019158181 -0.04371748
0000e0 4d 53 4b bd 00 d6 9f bd b1 24 27 bd ac fb 8d bc
       -0.04963999 -0.07804489 -0.040806476 -0.01733192
0000f0 aa d7 8e bc 2a d5 99 3c 01 42 c8 bd 28 93 7c bd
       -0.017436821 0.018778402 -0.09778214 -0.061663777

fc2.bias f4 [10]
000000 e2 68 a4 bd af 14 d3 3d 7b 9e 2a bd 76 1d da 3c
       -0.08027817 0.103066795 -0.041655045 0.026625376
000010 d2 8e 9e bc 55 56 63 3d 2f 58 cb bd 9c 28 2f 3c
       -0.019355211 0.055502255 -0.09928929 0.010690834
000020 b6 1f 24 bd 0d 09 a6 3c
       -0.040069304 0.020267988
