public/digit_net.onnx (onnx, 12675 bytes, 3 tensors)

conv1.bias f4 [32]
00000000: df1a 5dbe c87e 6ebd 2592 b5bd 39ff 13be
00000010: 1586 c2be b5d9 583e ee52 bbbd 7ec3 cbbc
00000020: f776 2abe a2f9 5ebe a79f 0ebe e200 5dbd
00000030: 622f bcbd 8235 6c3d 048d 6c3c 8acb 31be
00000040: b246 093e 1dfd df3c 3f11 e33d cf6f 9abe
00000050: d8fd 243b 8238 9d3e b470 41be 9734 583d
00000060: e1fa d33d 52bd b6bd 3005 39be 3f32 3ebe
00000070: 3970 94bc b1c6 8f3e 7de0 bfbd 3ed4 9dbe
-0.21592282 -0.058226377 -0.088657655 -0.14452828 -0.3799292 0.21176799 -0.09146677 -0.024873491
-0.16646944 -0.21774915 -0.1392809 -0.05395592 -0.09188725 0.057668217 0.014437918 -0.173628
0.13405874 0.027342374 0.11087274 -0.30163428 0.0025175717 0.30707175 -0.18890649 0.05278453
0.10350586 -0.08922829 -0.18068385 -0.18573855 -0.018119918 0.28081277 -0.093689896 -0.3082599

conv2.bias f4 [64]
00000000: fd6c c1bd ce95 04bd a9bc 81bc 2049 91bc
00000010: d3a3 6dbd 3a48 d0ba e4f0 63bd eebc 0abd
00000020: 1b41 0b3d df42 8b3c dc9c 6bbd cf60 ccbc
00000030: a390 b1bc 6372 31bd 869b c0bc a247 65bd
00000040: 883c 5c3c 4b17 85bd 092b 963c 446c 94bd
00000050: 62e4 273d bcf5 2abd 6e22 80bd c966 35bd
00000060: b402 47bd 8218 57bd 290d 89bd 8c41 3bbc
00000070: ad4f 20bd 1548 9fbd 8006 b3bd f7c3 cb3b
00000080: 9e6f ff3c 3ad2 c9bc 2544 8dbd 85a4 403d
00000090: 4b2e babd c511 82bd 86bd 05bd f97b c0bc
000000a0: 527a 073d 49de bc3c 576c 82bd 3e4e 40ba
000000b0: a695 b5ba 2d26 6c3d c571 98bd f61c c93a
000000c0: be0a a2bd 6588 91bd 5169 17bd f147 fab9
000000d0: 26cb 51bd 7449 09bd 58b3 d43a ce3b a6bd
000000e0: 0c94 613c 4b50 bbbd e1a5 3ebd 345b dd3c
000000f0: 6792 963b 0e27 023d ee1e 33bd 8949 b5bb
-0.09444616 -0.032369427 -0.01583703 -0.017735064 -0.058017563 -0.0015890666 -0.055649653 -0.033871584
0.033997636 0.01699966 -0.05752264 -0.024948506 -0.021675413 -0.04332198 -0.02351166 -0.055976517
0.013442166 -0.064985834 0.018331068 -0.072472125 0.040989287 -0.041738257 -0.06256567 -0.044287477
-0.048586562 -0.052513607 -0.06691963 -0.011429202 -0.039138485 -0.077774204 -0.08741474 0.006218429
0.031181153 -0.024636377 -0.06897763 0.047031898 -0.09090861 -0.063510455 -0.032651447 -0.023496615
0.033075638 0.023055213 -0.063683204 -0.0007335878 -0.0013853803 0.057653595 -0.07443575 0.0015343714
-0.07912205 -0.07106093 -0.036965672 -0.00047737316 -0.051219128 -0.033517316 0.0016227765 -0.081168756
0.013768207 -0.09146174 -0.046544913 0.027021028 0.0045950892 0.031775527 -0.04373067 -0.0055324477

fc2.bias f4 [10]
00000000: d1e5 84bb 5c0c d23d 1265 763d 3e85 b0bd
00000010: 37b7 d8bc 030c 60bc 6b64 66bd f784 733d
00000020: 446a 3abd 2003 55bd
-0.0040557166 0.102562636 0.060154982 -0.08619164 -0.026454551 -0.013674739 -0.05624811 0.059452977
-0.0455115 -0.052004933
